model.pth (torch, 3389 bytes, 6 tensors)

net.0.weight f4 [8, 4]
00000000: c0dd 623e 39be 803f 5d73 98be 6078 9cbf
00000010: eab7 123f 589a 643e 0a3f 6b3f 2374 653f
00000020: 763f 90be 98ed fd3e f468 e2be 00a5 7a3c
00000030: 0e52 a5be d806 913d eaca c0be f214 fabe
00000040: 80ef 923e 636e 243f 849e 81be b209 72bf
00000050: 2978 86be c72d e1be 8fc5 4b3e a196 893e
00000060: 1137 883d cbfc 49be 3524 44be 9213 a93d
00000070: e27d 8bbe 4c47 903e 6471 d6be 2e37 c0be
0.22154903 1.0058051 -0.29775515 -1.2224236 0.5731188 0.22324502 0.91893065 0.89630336
-0.28173417 0.49595332 -0.44220698 0.015298128 -0.32289165 0.070813835 -0.3765481 -0.48844105
0.2869835 0.64230937 -0.2531625 -0.94546044 -0.2626355 -0.43980238 0.19899581 0.26872733
0.06651128 -0.19725339 -0.19154437 0.08255686 -0.27244478 0.28179395 -0.41883385 -0.375421

net.0.bias f4 [8]
00000000: 5212 2f3f 7418 a5be 16fe a9be f6ef cdbe
00000010: 939e fb3d 7b5a a33e 69de e4be 1c83 63be
0.6838733 -0.3224522 -0.33201665 -0.40222138 0.12286105 0.3190497 -0.44700935 -0.22217983

net.2.weight f4 [9, 8]
00000000: 9b59 273f f480 913d 434c 8bbe 94e1 a1be
00000010: 388e 913f e49a 803e d8c3 40be b1e0 a23e
00000020: 517a 6fbf bd14 5a3f 7b28 5bbe c218 2fbe
00000030: 1e5f 1bbf dca8 833e a56a e3bd 646a 99be
00000040: 841b 8d3d f441 88bd 50d4 8fbe b265 263e
00000050: 80be 13be 0010 cab9 a4d4 983d ca1a 503e
00000060: bb66 23bd 5b77 19bd 28f0 013e 38dd 083d
00000070: a437 eb3d 00fb 453c d19d 63be 5bde a33e
00000080: 68d8 bfbd fa0f 20be 087e 033e 48dc 45bd
00000090: 368e b1be 55a2 a5be 5468 afbd 9826 78be
000000a0: b1dd a53d fb6e b5bd 9850 ef3d 2487 27be
000000b0: efb1 163d a9f6 0abe a61b 483e 84ce 07be
000000c0: 9c23 833f 0d99 e7bd 90c5 6bbe f0c1 d03d
000000d0: 3f5c 853f 186f 3d3d 828d 04be 7f32 a1be
000000e0: 1e2d 8f3f 21f8 88bd 38a5 adbe 0a67 72be
000000f0: 158a 743f 0aba 5ebe 7b8d bfbc 60ff 1d3c
00000100: 341b ecbe c8c8 073f cc1b 44be c40f c4bd
00000110: dc1a 8fbe 2e7c 953e 0dc7 b6bc c645 363e
0.653711 0.07104674 -0.2720662 -0.31617415 1.1371527 0.25118172 -0.18824708 0.3181205
-0.93546015 0.85187894 -0.21402161 -0.17099288 -0.6069201 0.25714767 -0.11104325 -0.29963982
0.06890014 -0.066532046 -0.2809167 0.16249731 -0.14428139 -0.00038540363 0.07462433 0.20322719
-0.039892893 -0.037467342 0.12689269 0.033414096 0.11485222 0.012083769 -0.22228171 0.3200558
-0.09367448 -0.15631095 0.12841046 -0.04830578 -0.3467881 -0.32350412 -0.08564821 -0.24233472
0.08098925 -0.088590585 0.11685294 -0.16360146 0.036790784 -0.13570656 0.19541797 -0.13262373
1.0245242 -0.11308489 -0.23024583 0.10193241 1.0418776 0.046248525 -0.12944606 -0.31483838
1.1185644 -0.06687952 -0.33915114 -0.23672119 0.95523196 -0.21750656 -0.023382893 0.009643406
-0.46114504 0.5304074 -0.19151229 -0.095733196 -0.2795018 0.29196304 -0.022311712 0.17800054

net.2.bias f4 [9]
00000000: e65e 093f d75a b8bc 5351 14be 212f e2be
00000010: fc36 b8bd c2fd 51be 9a49 173f 6ffa a93d
00000020: e728 9c3e
0.5366043 -0.022504253 -0.14484148 -0.44176582 -0.089948624 -0.20506957 0.5909668 0.082997195
0.30499956

net.4.weight f4 [3, 9]
00000000: bb04 c73d 022f 00bf 1490 cb3d 64d3 4fbe
00000010: 660c 4dbe f894 083e 604f 263f 65ff 013f
00000020: 57c6 5ebf e92c 823e af6d 0d3e af34 82be
00000030: 6061 ab3d f8d4 3bbe de52 17be 7b85 a23d
00000040: 34fe 513e 1016 8d3e 130c 21bf e57c 703f
00000050: 1162 8b3e 999a 393d bad5 5d3e e358 f1bc
00000060: 788b 82bf 55d3 11bf be2d 3a3f
0.09717699 -0.5007173 0.0993959 -0.20295483 -0.20024261 0.13338077 0.64964867 0.50780326
-0.8702139 0.2542489 0.13811372 -0.2543082 0.08368182 -0.1834296 -0.14777705 0.07935616
0.20507127 0.27555895 -0.6290905 0.93940574 0.27223256 0.04531345 0.21663561 -0.02946133
-1.0198812 -0.5696309 0.7272605

net.4.bias f4 [3]
00000000: 1ffa 34be 0835 833e 285c 19bf
-0.17673539 0.25626397 -0.59906244
